…
 = Dense(3, activation=\'softmax\')(x)\r\nmodel = Model(base_model.input, x)\r\nmodel.compile(optimizer = ""adam"", loss = \'categorical_crossentropy\',metrics = [""accuracy""])\r\nmodel.summary()\r\n\r\nModel: ""model_1""\r\n_________________________________________________________________\r\nLayer (type)                 Output Shape              Param #   \r\n=================================================================\r\ninput_2 (InputLayer)         [(None, 224, 224, 3)]     0         \r\n_________________________________________________________________\r\nblock1_conv1 (Conv2D)        (None, 224, 224, 64)      1792      \r\n_________________________________________________________________\r\nblock1_conv2 (Conv2D)        (None, 224, 224, 64)      36928     \r\n_________________________________________________________________\r\nblock1_pool (MaxPooling2D)   (None, 112, 112, 64)      0         \r\n_________________________________________________________________\r\nblock2_conv1 (Conv2D)        (None, 112, 112, 128)     73856     \r\n_________________________________________________________________\r\nblock2_conv2 (Conv2D)        (None, 112, 112, 128)     147584    \r\n_________________________________________________________________\r\nblock2_pool (MaxPooling2D)   (None, 56, 56, 128)       0         \r\n_________________________________________________________________\r\nblock3_conv1 (Conv2D)        (None, 56, 56, 256)       295168    \r\n_________________________________________________________________\r\nblock3_conv2 (Conv2D)        (None, 56, 56, 256)       590080    \r\n_________________________________________________________________\r\nblock3_conv3 (Conv2D)        (None, 56, 56, 256)       590080    \r\n_________________________________________________________________\r\nblock3_pool (MaxPooling2D)   (None, 28, 28, 256)       0\r\n\r\n']",open,2020-12-21 10:59:18,
https://api.github.com/repos/keras-team/keras/issues/14317,b'Feature request - testing_split in ImageDataGenerator',"[b'Is there an indirect way of splitting train, test, and validation?']",open,2020-12-19 16:57:44,
https://api.github.com/repos/keras-team/keras/issues/14315,b'How to slice a tensor in keras with variable indices?',"[b'Is it a problem relate
…
